pretrained/order_model.pth (torch, 5936 bytes, 6 tensors)

network.0.weight f4 [32, 6]
0	0x3e286c94	0.1644767
1	0xbd1574aa	-0.036488213
2	0x3e82ee54	0.25572455
3	0x3eacc60d	0.3374485
4	0xc067045e	-3.6096416
5	0x3c312165	0.0108111845
6	0x3f098ac6	0.53727376
7	0x3e1b7547	0.15181457
8	0xbd9afc31	-0.07567633
9	0x3e045488	0.12922871
10	0xc0373eff	-2.86322
11	0x3e5e2e20	0.21697283
12	0x3e2d5c4c	0.1692974
13	0xbeb0167f	-0.34392163
14	0xbe87717c	-0.2645377
15	0xbecf54ec	-0.40494478
16	0x3e4d102c	0.200257
17	0xbdb26970	-0.08711517
18	0x3e82ff4d	0.25585404
19	0x3e4d86f0	0.20071006
20	0x3c14df10	0.009086385
21	0x3ed14f33	0.40880737
22	0xc046101b	-3.094733
23	0x3e87987e	0.2648353
24	0xbd149c40	-0.036281824
25	0xbe3d4fef	-0.18487523
26	0xbeb46433	-0.35232696
27	0xbec1c68a	-0.37846786
28	0xbe7d2617	-0.24721561
29	0x3c2cf4c0	0.0105564
30	0x3dfbd19a	0.12295838
31	0x3e1c4e8a	0.15264335
32	0x3e034e21	0.12822773
33	0x3eb3fda1	0.3515444
34	0xc0212a2b	-2.5181987
35	0x3f0b598a	0.544335
36	0xbe89e943	-0.26935777
37	0xbec5147b	-0.38492188
38	0xbd40ed90	-0.047101557
39	0xbe90c54e	-0.28275532
40	0x3da4b960	0.0804317
41	0x3e9699a4	0.29414093
42	0xbe1df75d	-0.15426393
43	0xbba1c634	-0.0049369577
44	0x3ce9bb1c	0.028531604
45	0x3eb24785	0.3482019
46	0xc03ad333	-2.9191406
47	0x3eb06d40	0.3445835
48	0xbe1a7f16	-0.15087542
49	0xbb5c1536	-0.0033581979
50	0x3d2d6456	0.042332016
51	0x3e374e24	0.17900902
52	0xc039fdab	-2.9061077
53	0x3e550e6a	0.2080628
54	0x3d0e4b98	0.03474006
55	0xbeafceba	-0.34337407
56	0xbeb86b61	-0.36019424
57	0xbdda6474	-0.10663691
58	0xbeacd074	-0.33752787
59	0x3e17cf34	0.14825135
60	0xbc5a93bc	-0.013340887
61	0xbc2ad88b	-0.010427604
62	0xbd31258c	-0.043248698
63	0x3e89a08a	0.26880294
64	0xc04305bb	-3.0472248
65	0x3e6dd68a	0.23226371
66	0x3cb49b4c	0.022046708
67	0x3d021005	0.03175356
68	0x3e017a34	0.12644273
69	0xbf279fce	-0.6547822
70	0x4002dc9a	2.0447145
71	0xbec2f965	-0.38080898
72	0xbdadd7b7	-0.0848841
73	0xbe019752	-0.1265538
74	0xbc2af308	-0.01043392
75	0x3e950f52	0.2911325
76	0xc021c5bf	-2.5276945
77	0x3dd0642c	0.10175356
78	0xbda3c9fe	-0.07997511
79	0xbbf0a54c	-0.0073439237
80	0xbe02c63b	-0.12770931
81	0x3ee75689	0.4518321
82	0xc02b1fce	-2.6738162
83	0x3ee83816	0.4535529
84	0xbe5d4ff4	-0.21612531
85	0x3a2b5268	0.0006535412
86	0x3d0138c1	0.031548265
87	0x3d9c9c7a	0.07647033
88	0xc058e91c	-3.3892279
89	0x3ee6da1e	0.45088285
90	0x3ed863ff	0.4226379
91	0x3cd66654	0.02617184
92	0x3e81ffca	0.25390464
93	0xbe4b7dc9	-0.19872202
94	0xc035847b	-2.836211
95	0x3ebb595a	0.36591607
96	0x3eab8cd4	0.3350588
97	0x3e5d0db0	0.21587253
98	0xbb7755d8	-0.0037740376
99	0x3f086509	0.5327917
100	0xc002a3b5	-2.041242
101	0x3eabba5f	0.33540627
102	0x3e8a44fe	0.27005762
103	0xbe8e1be8	-0.27755666
104	0xbeda0dc4	-0.42588627
105	0x3e2574cb	0.16157834
106	0xbf0f689e	-0.5601901
107	0x3eaa8db4	0.33311236
108	0xbe57913f	-0.210515
109	0xbeb945ce	-0.3618607
110	0x3d2d1ca0	0.042263627
111	0xbeaa8227	-0.33302423
112	0xbe50d40d	-0.20393391
113	0xbe844eec	-0.25841463
114	0xbcffc6d1	-0.031222733
115	0x3d079a66	0.03310623
116	0xbd362603	-0.044469845
117	0xbf1bd10b	-0.6086585
118	0x4029b44f	2.6516302
119	0xbf084a24	-0.5323813
120	0xbcffca50	-0.0312244
121	0x3e3d84b8	0.1850766
122	0xbe7adb7c	-0.24497789
123	0x3d801418	0.062538326
124	0xc011c55d	-2.277671
125	0xbe0a12af	-0.1348369
126	0xbe64e7de	-0.22354075
127	0x3d87560e	0.066082105
128	0x3e9ba451	0.303988
129	0xbd29d587	-0.0414634
130	0xc0598f9f	-3.399391
131	0x3ca829e9	0.020527797
132	0x3f000282	0.50003827
133	0x3e1ec73c	0.1550569
134	0x3ebb1b1d	0.36544123
135	0x3dbc1e7d	0.09185503
136	0xc012bb74	-2.2926912
137	0xbe5f6fdf	-0.21820019
138	0x3e28c5af	0.1648166
139	0xbb79048e	-0.00379971
140	0xbdf71946	-0.120653674
141	0x3e88faa5	0.26753727
142	0xc078d0dd	-3.887748
143	0xbdf43d4c	-0.11925754
144	0x3d1050f3	0.03523345
145	0xbbe959f9	-0.0071213213
146	0x3dd0fabe	0.10204075
147	0x3df4bfa9	0.11950619
148	0xc06e94ba	-3.7278275
149	0x3e2a113e	0.1660814
150	0x3d385ef0	0.045012414
151	0x3a755806	0.0009359125
152	0x3cf05542	0.02933753
153	0xbbae064b	-0.005310809
154	0x40764109	3.8477194
155	0xbf0cf473	-0.550605
156	0xbd90c190	-0.07068169
157	0xbe050794	-0.12991172
158	0xbdddddd4	-0.10833326
159	0xbed0503b	-0.4068621
160	0x3ecd8adc	0.40145004
161	0x3dfb6870	0.12275779
162	0xbea3bdf5	-0.31980863
163	0xbc7d2707	-0.015451199
164	0x3e13c1a3	0.14429335
165	0x3ec4d6e5	0.38445202
166	0xc0442b78	-3.0651531
167	0x3e2cf904	0.16891867
168	0xbebf2702	-0.37334448
169	0xbe1864a8	-0.14882147
170	0x3ddad0a8	0.10684329
171	0xbe6a5c18	-0.22886693
172	0x3e2b2a0c	0.16715258
173	0xbe6f7928	-0.23386061
174	0x3e666d58	0.22502649
175	0xbebefe86	-0.3730356
176	0x3e485068	0.19561923
177	0xbeabf93e	-0.33588594
178	0x3e3de74c	0.18545264
179	0x3ed006ce	0.40630192
180	0x3e071d12	0.13194683
181	0xbeebaa25	-0.46028247
182	0x3c71f61a	0.014768148
183	0x3e9fedbf	0.31236073
184	0x3fe3b1c0	1.778862
185	0xbda3b1cc	-0.079928964
186	0x3e19f0d3	0.15033273
187	0xbb50b43f	-0.0031845716
188	0xbdee32f4	-0.11630812
189	0x3e386e95	0.18010934
190	0xc04eb42d	-3.229747
191	0x3ef85214	0.4850012

network.0.bias f4 [32]
0	0xbe0f3161	-0.1398368
1	0xbd9c60da	-0.076356605
2	0x3e8856b2	0.26628643
3	0xbc9eae62	-0.019370262
4	0xbdaf639c	-0.08563921
5	0xbe3a46e9	-0.18191113
6	0xbdd26074	-0.10272303
7	0x3ef5b63f	0.47990605
8	0xbd69e58f	-0.05710369
9	0xbcf00f90	-0.029304296
10	0x3ec9d2f9	0.39418772
11	0xbeba6844	-0.36407673
12	0x3e76df5f	0.24108647
13	0x3e855079	0.26037958
14	0xbe1ed4e9	-0.15510906
15	0x3ef12667	0.4709961
16	0x3ecc41e3	0.39894018
17	0x3eb483b6	0.35256737
18	0xbdb65034	-0.08902016
19	0x3e7f6305	0.24940117
20	0xbe130851	-0.14358641
21	0x3e518fe1	0.20465042
22	0x3ebd913e	0.37024873
23	0x3f044c3f	0.5167884
24	0x3d7096a5	0.058737416
25	0xbce33917	-0.027737183
26	0x3e061cb4	0.13096887
27	0x3eb07aad	0.34468594
28	0xbe08d0c8	-0.13360894
29	0xbec19b3f	-0.37813756
30	0xbeb0242e	-0.34402603
31	0xbd826f8c	-0.06368932

network.3.weight f4 [16, 32]
0	0x3d838eda	0.06423731
1	0xbc9d2589	-0.019182937
2	0xbde097d6	-0.109664604
3	0xbca35f9b	-0.01994305
4	0x3d914bce	0.07094537
5	0x3e69c192	0.22827747
6	0xbd136f3c	-0.035994753
7	0x3e2a45e6	0.16628227
8	0x3e7a591e	0.24448058
9	0x3dd17dc6	0.102290675
10	0x3e87441a	0.26419145
11	0xbdc170a9	-0.09445316
12	0x3e3e37be	0.18575951
13	0x3c5fba21	0.013655216
14	0x3f020ef5	0.5080407
15	0x3d6536e6	0.05596056
16	0xbdbbdc97	-0.091729335
17	0xbc952843	-0.018207675
18	0x3da082b6	0.07837431
19	0xbe59ac53	-0.21257143
20	0x3d867f76	0.0656728
21	0xbbc10e98	-0.0058916323
22	0x3cb720c2	0.022354487
23	0x3e8c70ff	0.2742996
24	0x3eb7a5d0	0.35868692
25	0xbebf03fe	-0.37307733
26	0xbe174b75	-0.14774878
27	0xbce0027f	-0.02734494
28	0x3e1c3b93	0.15257101
29	0x3de5b49e	0.112160906
30	0xbe25ad59	-0.16179408
31	0x3ef59b18	0.4796989
32	0xbe2402dd	-0.16016717
33	0xbc411012	-0.011783617
34	0xbc0c13e0	-0.00854966
35	0xbe2aeef3	-0.16692714
36	0x3d79c83c	0.060981974
37	0xbe148800	-0.14505005
38	0x3e21cebd	0.1580152
39	0xbca2fdec	-0.01989647
40	0xbd70be6c	-0.05877535
41	0x3dde8542	0.10865261
42	0x3a85328a	0.0010162157
43	0xbe5e4654	-0.21706516
44	0xbdcd030b	-0.10010346
45	0xbdae41e3	-0.08508661
46	0xbd55fd95	-0.052243788
47	0x3d987721	0.07444597
48	0xbd87c857	-0.06630009
49	0xbe059efc	-0.13048929
50	0xbe3101c3	-0.17285828
51	0xbc88b52a	-0.016687948
52	0xbd180f79	-0.03712413
53	0xbd993bd8	-0.074821174
54	0xbe0bec3d	-0.13664337
55	0xbe4f3b7a	-0.20237532
56	0xbdb4fb28	-0.08836967
57	0xbdebd3e8	-0.11515027
58	0xbd5627c2	-0.05228401
59	0xbd4ae804	-0.049537674
60	0xbd37ac60	-0.044842124
61	0xbccdfdb0	-0.025145382
62	0x3d862b56	0.065512344
63	0xbe0519ea	-0.12998167
64	0xbeb8eed2	-0.36119705
65	0x3dc8e49a	0.09809227
66	0xbca08f98	-0.01959972
67	0x3dd6a2a8	0.10480243
68	0xbe0c9dfc	-0.13732141
69	0x3e19954f	0.14998363
70	0x3d99b112	0.075044766
71	0xbe45946b	-0.19294898
72	0xbe33f94f	-0.17575572
73	0xbe002a82	-0.12516215
74	0xbdc5faab	-0.09666952
75	0xbda7d3f2	-0.08194722
76	0xbeca7309	-0.3954089
77	0xbc8bed39	-0.01708089
78	0xbef91d07	-0.4865496
79	0xbdeca88b	-0.115555845
80	0x3d4435ac	0.047902748
81	0x3e04768a	0.12935844
82	0xbdf3856a	-0.11890681
83	0x3daa609b	0.08319207
84	0x3e333b51	0.17503096
85	0xbdaeaf7e	-0.08529566
86	0x3da42840	0.080154896
87	0xbe06e5e0	-0.13173628
88	0xbec50ac8	-0.38484788
89	0x3eace017	0.33764717
90	0x3e0d1d8d	0.13780804
91	0xbdf9aa90	-0.12190735
92	0xbcb71ec0	-0.02235353
93	0xbdb18d19	-0.0866949
94	0x3d8bd920	0.06828523
95	0xbdaa1993	-0.08305659
96	0x3e4cbeca	0.19994655
97	0x3d84330b	0.06455048
98	0x3e23a1bb	0.15979664
99	0x3d53ff12	0.051756926
100	0xbdf1f75f	-0.118147604
101	0x3e1065b0	0.1410129
102	0xbd81491e	-0.06312774
103	0x3e927ae9	0.28609398
104	0x3e966a2d	0.2937788
105	0x3e0eac95	0.13933022
106	0x3db67286	0.08908562
107	0x3d407cb4	0.046993926
108	0x3eae0f85	0.33996215
109	0x3d84429d	0.06458018
110	0x3ed44041	0.41455272
111	0xbc70f485	-0.0147067355
112	0x3daeec35	0.08541147
113	0x3e54e470	0.20790267
114	0x3e0b1053	0.13580446
115	0x3de3e082	0.11126806
116	0x3d32a6f2	0.043616243
117	0xbdbf0186	-0.093264624
118	0xbd4fa0f2	-0.0506906
119	0x3de32f24	0.11092976
120	0x3ebfc9fa	0.37458783
121	0xbedbca46	-0.4292776
122	0x3db238ba	0.08702226
123	0x3e3e33dc	0.1857447
124	0xbe15388e	-0.14572355
125	0x3d86ddca	0.06585272
126	0xbe2d965d	-0.1695189
127	0x3eaadc8c	0.3337139
128	0xbde06802	-0.10957338
129	0xbdd93ba1	-0.106070764
130	0xbd2adf60	-0.041716933
131	0x3d9ebffd	0.077514626
132	0x3e264db5	0.1624058
133	0xbd5b7a6b	-0.053583544
134	0x3e0d345d	0.13789506
135	0xbac4c17a	-0.0015011274
136	0xbe99a080	-0.30005264
137	0x3de400aa	0.11132939
138	0xbe500b9f	-0.20316933
139	0x3d9a44c2	0.07532646
140	0x3d99c64e	0.07508527
141	0xbdc048e8	-0.09388906
142	0xbe89739a	-0.2684601
143	0x3e071a40	0.13193607
144	0x3d490419	0.049076173
145	0x3d628af3	0.055308294
146	0xbe02256b	-0.12709586
147	0x3da15a1c	0.07878515
148	0xbe2193c5	-0.15779026
149	0xbbef8ecc	-0.007310724
150	0xbe0b18f4	-0.13583738
151	0xbe14e7ad	-0.14541502
152	0xbd212e8a	-0.039351024
153	0x3d88ff7f	0.06689357
154	0xbdd43cde	-0.10363172
155	0xbe46c396	-0.19410548
156	0x3decf42a	0.11570008
157	0xbdc34a65	-0.09535674
158	0x3dac7b09	0.084219046
159	0xbe1e3e8a	-0.15453544
160	0xbbe10272	-0.0068667466
161	0xbd1bd286	-0.038042568
162	0xbdb9a139	-0.09063954
163	0xbe0ed515	-0.13948472
164	0x3e054495	0.13014443
165	0xbe15e5c0	-0.14638424
166	0xbcec3be0	-0.028837144
167	0xbe3532ae	-0.17695114
168	0xbd908699	-0.070569225
169	0x3df59692	0.1199161
170	0xbe0d4cd4	-0.13798839
171	0xbddb2604	-0.1070061
172	0x3d8e562e	0.06950031
173	0xbe4e0368	-0.20118487
174	0xbdef6b24	-0.11690357
175	0xbe5b9fa0	-0.21447611
176	0x3d9b88b8	0.075944364
177	0xbdc49311	-0.09598363
178	0x3df4129a	0.119176105
179	0x3de979b5	0.11400167
180	0xbd62bd0c	-0.05535607
181	0x3d8570ec	0.06515679
182	0xbe3a65da	-0.18202916
183	0xbe1cec96	-0.15324625
184	0xbc886b2a	-0.016652662
185	0xbe78adbf	-0.24285029
186	0xbd3b9d3c	-0.045804247
187	0xbd29e8a9	-0.041481648
188	0x3db45c0e	0.088066205
189	0x3db36036	0.08758585
190	0x3e00fe1f	0.1259694
191	0xbea18a93	-0.31551036
192	0xbeb972ad	-0.36220303
193	0x3e214bd5	0.15751584
194	0x3da7e1ca	0.08197363
195	0x3dcca7fc	0.09992978
196	0xbe224b66	-0.15849075
197	0xbd4db1e5	-0.05021848
198	0x3d956bb6	0.07295935
199	0xbd04eae6	-0.03245058
200	0xbe2c11ac	-0.16803616
201	0xbdbfa0dc	-0.09356853
202	0xbdc140e9	-0.09436209
203	0x3e1110e8	0.14166605
204	0xbe8bbe20	-0.2729349
205	0xbd9709b1	-0.07374895
206	0xbea8080d	-0.32818642
207	0x3e0d2ce6	0.13786659
208	0xbc1f9b99	-0.009741687
209	0xbe1a1c49	-0.15049852
210	0xbdddfb7c	-0.108389825
211	0x3e58238e	0.21107313
212	0x3e2f8013	0.171387
213	0xbd7b87c3	-0.06140877
214	0x3e0e6db4	0.13909036
215	0x3d0da204	0.03457834
216	0xbecc32eb	-0.39882597
217	0x3ef5a0c5	0.4797422
218	0x3d9e436e	0.07727705
219	0xbde6c6bf	-0.112683766
220	0x3d64fea4	0.055906907
221	0xbc896840	-0.016773343
222	0xbe1093e8	-0.14118922
223	0xbdf95494	-0.12174335
224	0x3dc37085	0.09542946
225	0x3e0c2c74	0.13688833
226	0xbe062cdf	-0.13103054
227	0x3d3254b0	0.043537796
228	0xbdbb8d64	-0.091578275
229	0xbd36ccf5	-0.044629056
230	0xbdf68af2	-0.120382205
231	0x3ea2af87	0.31774542
232	0x3eb29b92	0.34884316
233	0x3e349683	0.1763554
234	0x3eabccac	0.3355459
235	0xbe2ea0ff	-0.17053603
236	0x3ebe1d3a	0.37131673
237	0x3eb0ee02	0.34556586
238	0x3f1551df	0.5832805
239	0x3cab2715	0.02089266
240	0xbd766830	-0.060157955
241	0x3d4386de	0.04773604
242	0xbe29219b	-0.16516726
243	0xbe9aa378	-0.30202842
244	0x3e54d76f	0.20785306
245	0x3d2880db	0.04113851
246	0xbcf77aa3	-0.030209845
247	0x3e28ebb2	0.1649616
248	0x3ebd8294	0.37013686
249	0xbeea1bbb	-0.45724282
250	0xbd210dec	-0.039319918
251	0x3e42d63d	0.19027038
252	0x3d9b973e	0.075972065
253	0xbd036250	-0.03207618
254	0xbe668811	-0.22512843
255	0x3ebb12ef	0.36537883

network.3.bias f4 [16]
0	0x3ee4acc9	0.44663075
1	0xbd499512	-0.04921443
2	0xbe80e581	-0.25175098
3	0x3eef8cf5	0.4678723
4	0xbd8b8c6f	-0.06813895
5	0x3c6ba61c	0.014382865
6	0xbe90fd8f	-0.2831845
7	0x3f325e87	0.6967549
8	0x3ef43731	0.47698358
9	0x3f0c363f	0.5477027
10	0x3f40e6a0	0.75351906
11	0x3edab25b	0.427142
12	0xbeb49774	-0.352718
13	0x3ed35343	0.4127446
14	0x3ef7d910	0.48407793
15	0xbe0c1fe6	-0.13684043

network.5.weight f4 [2, 16]
0	0x3edfdafa	0.43721753
1	0xbe4ef0b9	-0.20209016
2	0xbe6b4d7d	-0.22978778
3	0x3e3aba03	0.1823502
4	0xbdb66adc	-0.089071006
5	0xbe25857d	-0.16164203
6	0xbe074434	-0.13209611
7	0x3ea83c01	0.3285828
8	0x3e868b74	0.2627827
9	0x3e8a48ea	0.27008754
10	0x3f08d067	0.53442997
11	0x3e0ed724	0.13949257
12	0xbe3f1354	-0.18659717
13	0x3e6bd56a	0.2303063
14	0x3e9b65b3	0.30351028
15	0xbe1c7700	-0.1527977
16	0x3c17aa06	0.009256845
17	0xbd2d3d73	-0.04229493
18	0x3c8d00ab	0.017212233
19	0x3dfe5c71	0.124199755
20	0xb9e8df1d	-0.0004441672
21	0x3bfb2465	0.0076642507
22	0xbc8d535a	-0.01725166
23	0xbd3190e9	-0.043351088
24	0xbde03b3e	-0.109487996
25	0xbcd89c37	-0.026441677
26	0x3aff734d	0.0019489318
27	0xbd169921	-0.03676713
28	0xbd3ea004	-0.04653932
29	0x3dbffa5a	0.09373923
30	0x3c8bdf1d	0.017074162
31	0x3d11bc11	0.035579745

network.5.bias f4 [2]
0	0x3eca2adf	0.39485833
1	0x3e99d3c8	0.3004439
